…
      ]
    },
    {
      "id": 10,
      "type": "Anything Everywhere",
      "pos": [
        830,
        810
      ],
      "size": [
        180,
        80
      ],
      "flags": {},
      "order": 16,
      "mode": 0,
      "inputs": [
        {
          "name": "RMBGMODEL",
          "type": "*",
          "link": 11,
          "label": "输入",
          "color_on": ""
        }
      ],
      "properties": {
        "Node name for S&R": "Anything Everywhere",
        "group_restricted": 0,
        "color_restricted": 0
      },
      "widgets_values": [
        "BriaRMBG(\n  (conv_in): Conv2d(3, 64, kernel_size=(3, 3), stride=(2, 2), padding=(1, 1))\n  (pool_in): MaxPool2d(kernel_size=2, stride=2, padding=0, dilation=1, ceil_mode=True)\n  (stage1): RSU7(\n    (rebnconvin): REBNCONV(\n      (conv_s1): Conv2d(64, 64, kernel_size=(3, 3), stride=(1, 1), padding=(1, 1))\n      (bn_s1): BatchNorm2d(64, eps=1e-05, momentum=0.1, affine=True, track_running_stats=True)\n      (relu_s1): ReLU(inplace=True)\n    )\n    (rebnconv1): REBNCONV(\n      (conv_s1): Conv2d(64, 32, kernel_size=(3, 3), stride=(1, 1), padding=(1, 1))\n      (bn_s1): BatchNorm2d(32, eps=1e-05, momentum=0.1, affine=True, track_running_stats=True)\n      (relu_s1): ReLU(inplace=True)\n    )\n    (pool1): MaxPool2d(kernel_size=2, stride=2, padding=0, dilation=1, ceil_mode=True)\n    (rebnconv2): REBNCONV(\n      (conv_s1): Conv2d(32, 32, kernel_size=(3, 3), stride=(1, 1), padding=(1, 1))\n      (bn_s1): BatchNorm2d(32, eps=1e-05, momentum=0.1, affine=True, track_running_stats=True)\n      (relu_s1): ReLU(inplace=True)\n    )\n    (pool2): MaxPool2d(kernel_size=2, stride=2, padding=0, dilation=1, ceil_mode=True)\n    (rebnconv3): REBNCONV(\n      (conv_s1): Conv2d(32, 32, kernel_size=(3, 3), stride=(1, 1), padding=(1, 1))\n      (bn_s1): BatchNorm2d(32, eps=1e-05, momentum=0.1, affine=True, track_running_stats=True)\n      (relu_s1): ReLU(inplace=True)\n    )\n    (pool3): MaxPool2d(kernel_size=2, stride=2, padding=0, dilation=1, ceil_mode=True)\n    (rebnconv4): REBNCONV(\n      (conv_s1): Conv2d(32, 32, kernel_size=(3, 3), stride=(1, 1), padding=(1, 1))\n      (bn_s1): BatchNorm2d(32, eps=1e-05, momentum=0.1, affine=True, track_running_stats=True)\n      (relu_s1): ReLU(inplace=True)\n    )\n    (pool4): MaxPool2d(kernel_size=2, stride=2, padding=0, dilation=1, ceil_mode=True)\n    (rebnconv5): REBNCONV(\n      (conv_s1): Conv2d(32, 32, kernel_size=(3, 3), stride=(1, 1), padding=(1, 1))\n      (bn_s1): BatchNorm2d(32, eps=1e-05, momentum=0.1, affine=True, track_running_stats=True)\n      (relu_s1): ReLU(inplace=True)\n    )\n    (pool5): MaxPool2d(kernel_size=2, stride=2, padding=0, dilation=1, ceil_mode=True)\n    (rebnconv6): REBNCONV(\n      (conv_s1): Conv2d(32, 32, kernel_size=(3, 3), stride=(1, 1), padding=(1, 1))\n      (bn_s1): BatchNorm2d(32, eps=1e-05, momentum=0.1, affine=True, track_running_stats=True)\n      (relu_s1): ReLU(inplace=True)\n    )\n    (rebnconv7): REBNCONV(\n      (conv_s1): Conv2d(32, 32, kernel_size=(3, 3), stride=(1, 1), padding=(2, 2), dilation=(2, 2))\n      (bn_s1): BatchNorm2d(32, eps=1e-05, momentum=0.1, affine=True, track_running_stats=True)\n      (relu_s1): ReLU(inplace=True)\n    )\n    (rebnconv6d): REBNCONV(\n      (conv_s1): Conv2d(64, 32, kernel_size=(3, 3), stride=(1, 1), padding=(1, 1))\n      (bn_s1): BatchNorm2d(32, eps=1e-05, momentum=0.1, affine=True, track_running_stats=True)\n      (relu_s1): ReLU(inplace=True)\n    )\n    (rebnconv5d): REBNCONV(\n      (conv_s1): Conv2d(64, 32, kernel_size=(3, 3), stride=(1, 1), padding=(1, 1))\n      (bn_s1): BatchNorm2d(32, eps=1e-05, momentum=0.1, affine=True, track_running_stats=True)\n      (relu_s1): ReLU(inplace=True)\n    )\n    (rebnconv4d): REBNCONV(\n      (conv_s1): Conv2d(64, 32, kernel_size=(3, 3), stride=(1, 1), padding=(1, 1))\n      (bn_s1): BatchNorm2d(32, eps=1e-05, momentum=0.1, affine=True, track_running_stats=True)\n      (relu_s1): ReLU(inplace=True)\n    )\n    (rebnconv3d): REBNCONV(\n      (conv_s1): Conv2d(64, 32, kernel_size=(3, 3), stride=(1, 1), padding=(1, 1))\n      (bn_s1): BatchNorm2d(32, eps=1e-05, momentum=0.1, affine=True, track_running_stats=True)\n      (relu_s1): ReLU(inplace=True)\n    )\n    (rebnconv2d): REBNCONV(\n      (conv_s1): Conv2d(64, 32, kernel_size=(3, 3), stride=(1, 1), padding=(1, 1))\n      (bn_s1): BatchNorm2d(32, eps=1e-05, momentum=0.1, affine=True, track_running_stats=True)\n      (relu_s1): ReLU(inplace=True)\n    )\n    (rebnconv1d): REBNCONV(\n      (conv_s1): Conv2d(64, 64, kernel_size=(3, 3), stride=(1, 1), padding=(1, 1))\n      (bn_s1): BatchNorm2d(64, eps=1e-05, momentum=0.1, affine=True, track_running_stats=True)\n      (relu_s1): ReLU(inplace=True)\n    )\n  )\n  (pool12): MaxPool2d(kernel_size=2, stride=2, padding=0, dilation=1, ceil_mode=True)\n  (stage2): RSU6(\n    (rebnconvin): REBNCONV(\n      (conv_s1): Conv2d(64, 128, kernel_size=(3, 3), stride=(1, 1), padding=(1, 1))\n      (bn_s1): BatchNorm2d(128, eps=1e-05, momentum=0.1, affine=True, track_running_stats=True)\n      (relu_s1): ReLU(inplace=True)\n    )\n    (rebnconv1): REBNCONV(\n      (conv_s1): Conv2d(128, 32, kernel_size=(3, 3), stride=(1, 1), padding=(1, 1))\n      (bn_s1): BatchNorm2d(32, eps=1e-05, momentum=0.1, affine=True, track_running_stats=True)\n      (relu_s1): ReLU(inplace=True)\n    )\n    (pool1): MaxPool2d(kernel_size=2, stride=2, padding=0, dilation=1, ceil_mode=True)\n    (rebnconv2): REBNCONV(\n      (conv_s1): Conv2d(32, 32, kernel_size=(3, 3), stride=(1, 1), padding=(1, 1))\n      (bn_s1): BatchNorm2d(32, eps=1e-05, momentum=0.1, affine=True, track_running_stats=True)\n      (relu_s1): ReLU(inplace=True)\n    )\n    (pool2): MaxPool2d(kernel_size=2, stride=2, padding=0, dilation=1, ceil_mode=True)\n    (rebnconv3): REBNCONV(\n      (conv_s1): Conv2d(32, 32, kernel_size=(3, 3), stride=(1, 1), padding=(1, 1))\n      (bn_s1): BatchNorm2d(32, eps=1e-05, momentum=0.1, affine=True, track_running_stats=True)\n      (relu_s1): ReLU(inplace=True)\n    )\n    (pool3): MaxPool2d(kernel_size=2, stride=2, padding=0, dilation=1, ceil_mode=True)\n    (rebnconv4): REBNCONV(\n      (conv_s1): Conv2d(32, 32, kernel_size=(3, 3), stride=(1, 1), padding=(1, 1))\n      (bn_s1): BatchNorm2d(32, eps=1e-05, momentum=0.1, affine=True, track_running_stats=True)\n      (relu_s1): ReLU(inplace=True)\n    )\n    (pool4): MaxPool2d(kernel_size=2, stride=2, padding=0, dilation=1, ceil_mode=True)\n    (rebnconv5): REBNCONV(\n      (conv_s1): Conv2d(32, 32, kernel_size=(3, 3), stride=(1, 1), padding=(1, 1))\n      (bn_s1): BatchNorm2d(32, eps=1e-05, momentum=0.1, affine=True, track_running_stats=True)\n      (relu_s1): ReLU(inplace=True)\n    )\n    (rebnconv6): REBNCONV(\n      (conv_s1): Conv2d(32, 32, kernel_size=(3, 3), stride=(1, 1), padding=(2, 2), dilation=(2, 2))\n      (bn_s1): BatchNorm2d(32, eps=1e-05, momentum=0.1, affine=True, track_running_stats=True)\n      (relu_s1): ReLU(inplace=True)\n    )\n    (rebnconv5d): REBNCONV(\n      (conv_s1): Conv2d(64, 32, kernel_size=(3, 3), stride=(1, 1), padding=(1, 1))\n      (bn_s1): BatchNorm2d(32, eps=1e-05, momentum=0.1, affine=True, track_running_stats=True)\n      (relu_s1): ReLU(inplace=True)\n    )\n    (rebnconv4d): REBNCONV(\n      (conv_s1): Conv2d(64, 32, kernel_size=(3, 3), stride=(1, 1), padding=(1, 1))\n      (bn_s1): BatchNorm2d(32, eps=1e-05, momentum=0.1, affine=True, track_running_stats=True)\n      (relu_s1): ReLU(inplace=True)\n    )\n    (rebnconv3d): REBNCONV(\n      (conv_s1): Conv2d(64, 32, kernel_size=(3, 3), stride=(1, 1), padding=(1, 1))\n      (bn_s1): BatchNorm2d(32, eps=1e-05, momentum=0.1, affine=True, track_running_stats=True)\n      (relu_s1): ReLU(inplace=True)\n    )\n    (rebnconv2d): REBNCONV(\n      (conv_s1): Conv2d(64, 32, kernel_size=(3, 3), stride=(1, 1), padding=(1, 1))\n      (bn_s1): BatchNorm2d(32, eps=1e-05, momentum=0.1, affine=True, track_running_stats=True)\n      (relu_s1): ReLU(inplace=True)\n    )\n    (rebnconv1d): REBNCONV(\n      (conv_s1): Conv2d(64, 128, kernel_size=(3, 3), stride=(1, 1), padding=(1, 1))\n      (bn_s1): BatchNorm2d(128, eps=1e-05, momentum=0.1, affine=True, track_running_stats=True)\n      (relu_s1): ReLU(inplace=True)\n    )\n  )\n  (pool23): MaxPool2d(kernel_size=2, stride=2, padding=0, dilation=1, ceil_mode=True)\n  (stage3): RSU5(\n    (rebnconvin): REBNCONV(\n      (conv_s1): Conv2d(128, 256, kernel_size=(3, 3), stride=(1, 1), padding=(1, 1))\n      (bn_s1): BatchNorm2d(256, eps=1e-05, momentum=0.1, affine=True, track_running_stats=True)\n      (relu_s1): ReLU(inplace=True)\n    )\n    (rebnconv1): REBNCONV(\n      (conv_s1): Conv2d(256, 64, kernel_size=(3, 3), stride=(1, 1), padding=(1, 1))\n      (bn_s1): BatchNorm2d(64, eps=1e-05, momentum=0.1, affine=True, track_running_stats=True)\n      (relu_s1): ReLU(inplace=True)\n    )\n    (pool1): MaxPool2d(kernel_size=2, stride=2, padding=0, dilation=1, ceil_mode=True)\n    (rebnconv2): REBNCONV(\n      (conv_s1): Conv2d(64, 64, kernel_size=(3, 3), stride=(1, 1), padding=(1, 1))\n      (bn_s1): BatchNorm2d(64, eps=1e-05, momentum=0.1, affine=True, track_running_stats=True)\n      (relu_s1): ReLU(inplace=True)\n    )\n    (pool2): MaxPool2d(kernel_size=2, stride=2, padding=0, dilation=1, ceil_mode=True)\n    (rebnconv3): REBNCONV(\n      (conv_s1): Conv2d(64, 64, kernel_size=(3, 3), stride=(1, 1), padding=(1, 1))\n      (bn_s1): BatchNorm2d(64, eps=1e-05, momentum=0.1, affine=True, track_running_stats=True)\n      (relu_s1): ReLU(inplace=True)\n    )\n    (pool3): MaxPool2d(kernel_size=2, stride=2, padding=0, dilation=1, ceil_mode=True)\n    (rebnconv4): REBNCONV(\n      (conv_s1): Conv2d(64, 64, kernel_size=(3, 3), stride=(1, 1), padding=(1, 1))\n      (bn_s1): BatchNorm2d(64, eps=1e-05, momentum=0.1, affine=True, track_running_stats=True)\n      (relu_s1): ReLU(inplace=True)\n    )\n    (rebnconv5): REBNCONV(\n      (conv_s1): Conv2d(64, 64, kernel_size=(3, 3), stride=(1, 1), padding=(2, 2), dilation=(2, 2))\n      (bn_s1): BatchNorm2d(64, eps=1e-05, momentum=0.1, affine=True, track_running_stats=True)\n      (relu_s1): ReLU(inplace=True)\n    )\n    (rebnconv4d): REBNCONV(\n      (conv_s1): Conv2d(128, 64, kernel_size=(3, 3), stride=(1, 1), padding=(1, 1))\n      (bn_s1): BatchNorm2d(64, eps=1e-05, momentum=0.1, affine=True, track_running_stats=True)\n      (relu_s1): ReLU(inplace=True)\n    )\n    (rebnconv3d): REBNCONV(\n      (conv_s1): Conv2d(128, 64, kernel_size=(3, 3), stride=(1, 1), padding=(1, 1))\n      (bn_s1): BatchNorm2d(64, eps=1e-05, momentum=0.1, affine=True, track_running_stats=True)\n      (relu_s1): ReLU(inplace=True)\n    )\n    (rebnconv2d): REBNCONV(\n      (conv_s1): Conv2d(128, 64, kernel_size=(3, 3), stride=(1, 1), padding=(1, 1))\n      (bn_s1): BatchNorm2d(64, eps=1e-05, momentum=0.1, affine=True, track_running_stats=True)\n      (relu_s1): ReLU(inplace=True)\n    )\n    (rebnconv1d): REBNCONV(\n      (conv_s1): Conv2d(128, 256, kernel_size=(3, 3), stride=(1, 1), padding=(1, 1))\n      (bn_s1): BatchNorm2d(256, eps=1e-05, momentum=0.1, affine=True, track_running_stats=True)\n      (relu_s1): ReLU(inplace=True)\n    )\n  )\n  (pool34): MaxPool2d(kernel_size=2, stride=2, padding=0, dilation=1, ceil_mode=True)\n  (stage4): RSU4(\n    (rebnconvin): REBNCONV(\n      (conv_s1): Conv2d(256, 512, kernel_size=(3, 3), stride=(1, 1), padding=(1, 1))\n      (bn_s1): BatchNorm2d(512, eps=1e-05, momentum=0.1, affine=True, track_running_stats=True)\n      (relu_s1): ReLU(inplace=True)\n    )\n    (rebnconv1): REBNCONV(\n      (conv_s1): Conv2d(512, 128, kernel_size=(3, 3), stride=(1, 1), padding=(1, 1))\n      (bn_s1): BatchNorm2d(128, eps=1e-05, momentum=0.1, affine=True, track_running_stats=True)\n      (relu_s1): ReLU(inplace=True)\n    )\n    (pool1): MaxPool2d(kernel_size=2, stride=2, padding=0, dilation=1, ceil_mode=True)\n    (rebnconv2): REBNCONV(\n      (conv_s1): Conv2d(128, 128, kernel_size=(3, 3), stride=(1, 1), padding=(1, 1))\n      (bn_s1): BatchNorm2d(128, eps=1e-05, momentum=0.1, affine=True, track_running_stats=True)\n      (relu_s1): ReLU(inplace=True)\n    )\n    (pool2): MaxPool2d(kernel_size=2, stride=2, padding=0, dilation=1, ceil_mode=True)\n    (rebnconv3): REBNCONV(\n      (conv_s1): Conv2d(128, 128, kernel_size=(3, 3), stride=(1, 1), padding=(1, 1))\n      (bn_s1): BatchNorm2d(128, eps=1e-05, momentum=0.1, affine=True, track_running_stats=True)\n      (relu_s1): ReLU(inplace=True)\n    )\n    (rebnconv4): REBNCONV(\n      (conv_s1): Conv2d(128, 128, kernel_size=(3, 3), stride=(1, 1), padding=(2, 2), dilation=(2, 2))\n      (bn_s1): BatchNorm2d(128, eps=1e-05, momentum=0.1, affine=True, track_running_stats=True)\n      (relu_s1): ReLU(inplace=True)\n    )\n    (rebnconv3d): REBNCONV(\n      (conv_s1): Conv2d(256, 128, kernel_size=(3, 3), stride=(1, 1), padding=(1, 1))\n      (bn_s1): BatchNorm2d(128, eps=1e-05, momentum=0.1, affine=True, track_running_stats=True)\n      (relu_s1): ReLU(inplace=True)\n    )\n    (rebnconv2d): REBNCONV(\n      (conv_s1): Conv2d(256, 128, kernel_size=(3, 3), stride=(1, 1), padding=(1, 1))\n      (bn_s1): BatchNorm2d(128, eps=1e-05, momentum=0.1, affine=True, track_running_stats=True)\n      (relu_s1): ReLU(inplace=True)\n    )\n    (rebnconv1d): REBNCONV(\n      (conv_s1): Conv2d(256, 512, kernel_size=(3, 3), stride=(1, 1), padding=(1, 1))\n      (bn_s1): BatchNorm2d(512, eps=1e-05, momentum=0.1, affine=True, track_running_stats=True)\n      (relu_s1): ReLU(inplace=True)\n    )\n  )\n  (pool45): MaxPool2d(kernel_size=2, stride=2, padding=0, dilation=1, ceil_mode=True)\n  (stage5): RSU4F(\n    (rebnconvin): REBNCONV(\n      (conv_s1): Conv2d(512, 512, kernel_size=(3, 3), stride=(1, 1), padding=(1, 1))\n      (bn_s1): BatchNorm2d(512, eps=1e-05, momentum=0.1, affine=True, track_running_stats=True)\n      (relu_s1): ReLU(inplace=True)\n    )\n    (rebnconv1): REBNCONV(\n      (conv_s1): Conv2d(512, 256, kernel_size=(3, 3), stride=(1, 1), padding=(1, 1))\n      (bn_s1): BatchNorm2d(256, eps=1e-05, momentum=0.1, affine=True, track_running_stats=True)\n      (relu_s1): ReLU(inplace=True)\n    )\n    (rebnconv2): REBNCONV(\n      (conv_s1): Conv2d(256, 256, kernel_size=(3, 3), stride=(1, 1), padding=(2, 2), dilation=(2, 2))\n      (bn_s1): BatchNorm2d(256, eps=1e-05, momentum=0.1, affine=True, track_running_stats=True)\n      (relu_s1): ReLU(inplace=True)\n    )\n    (rebnconv3): REBNCONV(\n      (conv_s1): Conv2d(256, 256, kernel_size=(3, 3), stride=(1, 1), padding=(4, 4), dilation=(4, 4))\n      (bn_s1): BatchNorm2d(256, eps=1e-05, momentum=0.1, affine=True, track_running_stats=True)\n      (relu_s1): ReLU(inplace=True)\n    )\n    (rebnconv4): REBNCONV(\n      (conv_s1): Conv2d(256, 256, kernel_size=(3, 3), stride=(1, 1), padding=(8, 8), dilation=(8, 8))\n      (bn_s1): BatchNorm2d(256, eps=1e-05, momentum=0.1, affine=True, track_running_stats=True)\n      (relu_s1): ReLU(inplace=True)\n    )\n    (rebnconv3d): REBNCONV(\n      (conv_s1): Conv2d(512, 256, kernel_size=(3, 3), stride=(1, 1), padding=(4, 4), dilation=(4, 4))\n      (bn_s1): BatchNorm2d(256, eps=1e-05, momentum=0.1, affine=True, track_running_stats=True)\n      (relu_s1): ReLU(inplace=True)\n    )\n    (rebnconv2d): REBNCONV(\n      (conv_s1): Conv2d(512, 256, kernel_size=(3, 3), stride=(1, 1), padding=(2, 2), dilation=(2, 2))\n      (bn_s1): BatchNorm2d(256, eps=1e-05, momentum=0.1, affine=True, track_running_stats=True)\n      (relu_s1): ReLU(inplace=True)\n    )\n    (rebnconv1d): REBNCONV(\n      (conv_s1): Conv2d(512, 512, kernel_size=(3, 3), stride=(1, 1), padding=(1, 1))\n      (bn_s1): BatchNorm2d(512, eps=1e-05, momentum=0.1, affine=True, track_running_stats=True)\n      (relu_s1): ReLU(inplace=True)\n    )\n  )\n  (pool56): MaxPool2d(kernel_size=2, stride=2, padding=0, dilation=1, ceil_mode=True)\n  (stage6): RSU4F(\n    (rebnconvin): REBNCONV(\n      (conv_s1): Conv2d(512, 512, kernel_size=(3, 3), stride=(1, 1), padding=(1, 1))\n      (bn_s1): BatchNorm2d(512, eps=1e-05, momentum=0.1, affine=True, track_running_stats=True)\n      (relu_s1): ReLU(inplace=True)\n    )\n    (rebnconv1): REBNCONV(\n      (conv_s1): Conv2d(512, 256, kernel_size=(3, 3), stride=(1, 1), padding=(1, 1))\n      (bn_s1): BatchNorm2d(256, eps=1e-05, momentum=0.1, affine=True, track_running_stats=True)\n      (relu_s1): ReLU(inplace=True)\n    )\n    (rebnconv2): REBNCONV(\n      (conv_s1): Conv2d(256, 256, kernel_size=(3, 3), stride=(1, 1), padding=(2, 2), dilation=(2, 2))\n      (bn_s1): BatchNorm2d(256, eps=1e-05, momentum=0.1, affine=True, track_running_stats=True)\n      (relu_s1): ReLU(inplace=True)\n    )\n    (rebnconv3): REBNCONV(\n      (conv_s1): Conv2d(256, 256, kernel_size=(3, 3), stride=(1, 1), padding=(4, 4), dilation=(4, 4))\n      (bn_s1): BatchNorm2d(256, eps=1e-05, momentum=0.1, affine=True, track_running_stats=True)\n      (relu_s1): ReLU(inplace=True)\n    )\n    (rebnconv4): REBNCONV(\n      (conv_s1): Conv2d(256, 256, kernel_size=(3, 3), stride=(1, 1), padding=(8, 8), dilation=(8, 8))\n      (bn_s1): BatchNorm2d(256, eps=1e-05, momentum=0.1, affine=True, track_running_stats=True)\n      (relu_s1): ReLU(inplace=True)\n    )\n    (rebnconv3d): REBNCONV(\n      (conv_s1): Conv2d(512, 256, kernel_size=(3, 3), stride=(1, 1), padding=(4, 4), dilation=(4, 4))\n      (bn_s1): BatchNorm2d(256, eps=1e-05, momentum=0.1, affine=True, track_running_stats=True)\n      (relu_s1): ReLU(inplace=True)\n    )\n    (rebnconv2d): REBNCONV(\n      (conv_s1): Conv2d(512, 256, kernel_size=(3, 3), stride=(1, 1), padding=(2, 2), dilation=(2, 2))\n      (bn_s1): BatchNorm2d(256, eps=1e-05, momentum=0.1, affine=True, track_running_stats=True)\n      (relu_s1): ReLU(inplace=True)\n    )\n    (rebnconv1d): REBNCONV(\n      (conv_s1): Conv2d(512, 512, kernel_size=(3, 3), stride=(1, 1), padding=(1, 1))\n      (bn_s1): BatchNorm2d(512, eps=1e-05, momentum=0.1, affine=True, track_running_stats=True)\n      (relu_s1): ReLU(inplace=True)\n    )\n  )\n  (stage5d): RSU4F(\n    (rebnconvin): REBNCONV(\n      (conv_s1): Conv2d(1024, 512, kernel_size=(3, 3), stride=(1, 1), padding=(1, 1))\n      (bn_s1): BatchNorm2d(512, eps=1e-05, momentum=0.1, affine=True, track_running_stats=True)\n      (relu_s1): ReLU(inplace=True)\n    )\n    (rebnconv1): REBNCONV(\n      (conv_s1): Conv2d(512, 256, kernel_size=(3, 3), stride=(1, 1), padding=(1, 1))\n      (bn_s1): BatchNorm2d(256, eps=1e-05, momentum=0.1, affine=True, track_running_stats=True)\n      (relu_s1): ReLU(inplace=True)\n    )\n    (rebnconv2): REBNCONV(\n      (conv_s1): Conv2d(256, 256, kernel_size=(3, 3), stride=(1, 1), padding=(2, 2), dilation=(2, 2))\n      (bn_s1): BatchNorm2d(256, eps=1e-05, momentum=0.1, affine=True, track_running_stats=True)\n      (relu_s1): ReLU(inplace=True)\n    )\n    (rebnconv3): REBNCONV(\n      (conv_s1): Conv2d(256, 256, kernel_size=(3, 3), stride=(1, 1), padding=(4, 4), dilation=(4, 4))\n      (bn_s1): BatchNorm2d(256, eps=1e-05, momentum=0.1, affine=True, track_running_stats=True)\n      (relu_s1): ReLU(inplace=True)\n    )\n    (rebnconv4): REBNCONV(\n      (conv_s1): Conv2d(256, 256, kernel_size=(3, 3), stride=(1, 1), padding=(8, 8), dilation=(8, 8))\n      (bn_s1): BatchNorm2d(256, eps=1e-05, momentum=0.1, affine=True, track_running_stats=True)\n      (relu_s1): ReLU(inplace=True)\n    )\n    (rebnconv3d): REBNCONV(\n      (conv_s1): Conv2d(512, 256, kernel_size=(3, 3), stride=(1, 1), padding=(4, 4), dilation=(4, 4))\n      (bn_s1): BatchNorm2d(256, eps=1e-05, momentum=0.1, affine=True, track_running_stats=True)\n      (relu_s1): ReLU(inplace=True)\n    )\n    (rebnconv2d): REBNCONV(\n      (conv_s1): Conv2d(512, 256, kernel_size=(3, 3), stride=(1, 1), padding=(2, 2), dilation=(2, 2))\n      (bn_s1): BatchNorm2d(256, eps=1e-05, momentum=0.1, affine=True, track_running_stats=True)\n      (relu_s1): ReLU(inplace=True)\n    )\n    (rebnconv1d): REBNCONV(\n      (conv_s1): Conv2d(512, 512, kernel_size=(3, 3), stride=(1, 1), padding=(1, 1))\n      (bn_s1): BatchNorm2d(512, eps=1e-05, momentum=0.1, affine=True, track_running_stats=True)\n      (relu_s1): ReLU(inplace=True)\n    )\n  )\n  (stage4d): RSU4(\n    (rebnconvin): REBNCONV(\n      (conv_s1): Conv2d(1024, 256, kernel_size=(3, 3), stride=(1, 1), padding=(1, 1))\n      (bn_s1): BatchNorm2d(256, eps=1e-05, momentum=0.1, affine=True, track_running_stats=True)\n      (relu_s1): ReLU(inplace=True)\n    )\n    (rebnconv1): REBNCONV(\n      (conv_s1): Conv2d(256, 128, kernel_size=(3, 3), stride=(1, 1), padding=(1, 1))\n      (bn_s1): BatchNorm2d(128, eps=1e-05, momentum=0.1, affine=True, track_running_stats=True)\n      (relu_s1): ReLU(inplace=True)\n    )\n    (pool1): MaxPool2d(kernel_size=2, stride=2, padding=0, dilation=1, ceil_mode=True)\n    (rebnconv2): REBNCONV(\n      (conv_s1): Conv2d(128, 128, kernel_size=(3, 3), stride=(1, 1), padding=(1, 1))\n      (bn_s1): BatchNorm2d(128, eps=1e-05, momentum=0.1, affine=True, track_running_stats=True)\n      (relu_s1): ReLU(inplace=True)\n    )\n    (pool2): MaxPool2d(kernel_size=2, stride=2, padding=0, dilation=1, ceil_mode=True)\n    (rebnconv3): REBNCONV(\n      (conv_s1): Conv2d(128, 128, kernel_size=(3, 3), stride=(1, 1), padding=(1, 1))\n      (bn_s1): BatchNorm2d(128, eps=1e-05, momentum=0.1, affine=True, track_running_stats=True)\n      (relu_s1): ReLU(inplace=True)\n    )\n    (rebnconv4): REBNCONV(\n      (conv_s1): Conv2d(128, 128, kernel_size=(3, 3), stride=(1, 1), padding=(2, 2), dilation=(2, 2))\n      (bn_s1): BatchNorm2d(128, eps=1e-05, momentum=0.1, affine=True, track_running_stats=True)\n      (relu_s1): ReLU(inplace=True)\n    )\n    (rebnconv3d): REBNCONV(\n      (conv_s1): Conv2d(256, 128, kernel_size=(3, 3), stride=(1, 1), padding=(1, 1))\n      (bn_s1): BatchNorm2d(128, eps=1e-05, momentum=0.1, affine=True, track_running_stats=True)\n      (relu_s1): ReLU(inplace=True)\n    )\n    (rebnconv2d): REBNCONV(\n      (conv_s1): Conv2d(256, 128, kernel_size=(3, 3), stride=(1, 1), padding=(1, 1))\n      (bn_s1): BatchNorm2d(128, eps=1e-05, momentum=0.1, affine=True, track_running_stats=True)\n      (relu_s1): ReLU(inplace=True)\n    )\n    (rebnconv1d): REBNCONV(\n      (conv_s1): Conv2d(256, 256, kernel_size=(3, 3), stride=(1, 1), padding=(1, 1))\n      (bn_s1): BatchNorm2d(256, eps=1e-05, momentum=0.1, affine=True, track_running_stats=True)\n      (relu_s1): ReLU(inplace=True)\n    )\n  )\n  (stage3d): RSU5(\n    (rebnconvin): REBNCONV(\n      (conv_s1): Conv2d(512, 128, kernel_size=(3, 3), stride=(1, 1), padding=(1, 1))\n      (bn_s1): BatchNorm2d(128, eps=1e-05, momentum=0.1, affine=True, track_running_stats=True)\n      (relu_s1): ReLU(inplace=True)\n    )\n    (rebnconv1): REBNCONV(\n      (conv_s1): Conv2d(128, 64, kernel_size=(3, 3), stride=(1, 1), padding=(1, 1))\n      (bn_s1): BatchNorm2d(64, eps=1e-05, momentum=0.1, affine=True, track_running_stats=True)\n      (relu_s1): ReLU(inplace=True)\n    )\n    (pool1): MaxPool2d(kernel_size=2, stride=2, padding=0, dilation=1, ceil_mode=True)\n    (rebnconv2): REBNCONV(\n      (conv_s1): Conv2d(64, 64, kernel_size=(3, 3), stride=(1, 1), padding=(1, 1))\n      (bn_s1): BatchNorm2d(64, eps=1e-05, momentum=0.1, affine=True, track_running_stats=True)\n      (relu_s1): ReLU(inplace=True)\n    )\n    (pool2): MaxPool2d(kernel_size=2, stride=2, padding=0, dilation=1, ceil_mode=True)\n    (rebnconv3): REBNCONV(\n      (conv_s1): Conv2d(64, 64, kernel_size=(3, 3), stride=(1, 1), padding=(1, 1))\n      (bn_s1): BatchNorm2d(64, eps=1e-05, momentum=0.1, affine=True, track_running_stats=True)\n      (relu_s1): ReLU(inplace=True)\n    )\n    (pool3): MaxPool2d(kernel_size=2, stride=2, padding=0, dilation=1, ceil_mode=True)\n    (rebnconv4): REBNCONV(\n      (conv_s1): Conv2d(64, 64, kernel_size=(3, 3), stride=(1, 1), padding=(1, 1))\n      (bn_s1): BatchNorm2d(64, eps=1e-05, momentum=0.1, affine=True, track_running_stats=True)\n      (relu_s1): ReLU(inplace=True)\n    )\n    (rebnconv5): REBNCONV(\n      (conv_s1): Conv2d(64, 64, kernel_size=(3, 3), stride=(1, 1), padding=(2, 2), dilation=(2, 2))\n      (bn_s1): BatchNorm2d(64, eps=1e-05, momentum=0.1, affine=True, track_running_stats=True)\n      (relu_s1): ReLU(inplace=True)\n    )\n    (rebnconv4d): REBNCONV(\n      (conv_s1): Conv2d(128, 64, kernel_size=(3, 3), stride=(1, 1), padding=(1, 1))\n      (bn_s1): BatchNorm2d(64, eps=1e-05, momentum=0.1, affine=True, track_running_stats=True)\n      (relu_s1): ReLU(inplace=True)\n    )\n    (rebnconv3d): REBNCONV(\n      (conv_s1): Conv2d(128, 64, kernel_size=(3, 3), stride=(1, 1), padding=(1, 1))\n      (bn_s1): BatchNorm2d(64, eps=1e-05, momentum=0.1, affine=True, track_running_stats=True)\n      (relu_s1): ReLU(inplace=True)\n    )\n    (rebnconv2d): REBNCONV(\n      (conv_s1): Conv2d(128, 64, kernel_size=(3, 3), stride=(1, 1), padding=(1, 1))\n      (bn_s1): BatchNorm2d(64, eps=1e-05, momentum=0.1, affine=True, track_running_stats=True)\n      (relu_s1): ReLU(inplace=True)\n    )\n    (rebnconv1d): REBNCONV(\n      (conv_s1): Conv2d(128, 128, kernel_size=(3, 3), stride=(1, 1), padding=(1, 1))\n      (bn_s1): BatchNorm2d(128, eps=1e-05, momentum=0.1, affine=True, track_running_stats=True)\n      (relu_s1): ReLU(inplace=True)\n    )\n  )\n  (stage2d): RSU6(\n    (rebnconvin): REBNCONV(\n      (conv_s1): Conv2d(256, 64, kernel_size=(3, 3), stride=(1, 1), padding=(1, 1))\n      (bn_s1): BatchNorm2d(64, eps=1e-05, momentum=0.1, affine=True, track_running_stats=True)\n      (relu_s1): ReLU(inplace=True)\n    )\n    (rebnconv1): REBNCONV(\n      (conv_s1): Conv2d(64, 32, kernel_size=(3, 3), stride=(1, 1), padding=(1, 1))\n      (bn_s1): BatchNorm2d(32, eps=1e-05, momentum=0.1, affine=True, track_running_stats=True)\n      (relu_s1): ReLU(inplace=True)\n    )\n    (pool1): MaxPool2d(kernel_size=2, stride=2, padding=0, dilation=1, ceil_mode=True)\n    (rebnconv2): REBNCONV(\n      (conv_s1): Conv2d(32, 32, kernel_size=(3, 3), stride=(1, 1), padding=(1, 1))\n      (bn_s1): BatchNorm2d(32, eps=1e-05, momentum=0.1, affine=True, track_running_stats=True)\n      (relu_s1): ReLU(inplace=True)\n    )\n    (pool2): MaxPool2d(kernel_size=2, stride=2, padding=0, dilation=1, ceil_mode=True)\n    (rebnconv3): REBNCONV(\n      (conv_s1): Conv2d(32, 32, kernel_size=(3, 3), stride=(1, 1), padding=(1, 1))\n      (bn_s1): BatchNorm2d(32, eps=1e-05, momentum=0.1, affine=True, track_running_stats=True)\n      (relu_s1): ReLU(inplace=True)\n    )\n    (pool3): MaxPool2d(kernel_size=2, stride=2, padding=0, dilation=1, ceil_mode=True)\n    (rebnconv4): REBNCONV(\n      (conv_s1): Conv2d(32, 32, kernel_size=(3, 3), stride=(1, 1), padding=(1, 1))\n      (bn_s1): BatchNorm2d(32, eps=1e-05, momentum=0.1, affine=True, track_running_stats=True)\n      (relu_s1): ReLU(inplace=True)\n    )\n    (pool4): MaxPool2d(kernel_size=2, stride=2, padding=0, dilation=1, ceil_mode=True)\n    (rebnconv5): REBNCONV(\n      (conv_s1): Conv2d(32, 32, kernel_size=(3, 3), stride=(1, 1), padding=(1, 1))\n      (bn_s1): BatchNorm2d(32, eps=1e-05, momentum=0.1, affine=True, track_running_stats=True)\n      (relu_s1): ReLU(inplace=True)\n    )\n    (rebnconv6): REBNCONV(\n      (conv_s1): Conv2d(32, 32, kernel_size=(3, 3), stride=(1, 1), padding=(2, 2), dilation=(2, 2))\n      (bn_s1): BatchNorm2d(32, eps=1e-05, momentum=0.1, affine=True, track_running_stats=True)\n      (relu_s1): ReLU(inplace=True)\n    )\n    (rebnconv5d): REBNCONV(\n      (conv_s1): Conv2d(64, 32, kernel_size=(3, 3), stride=(1, 1), padding=(1, 1))\n      (bn_s1): BatchNorm2d(32, eps=1e-05, momentum=0.1, affine=True, track_running_stats=True)\n      (relu_s1): ReLU(inplace=True)\n    )\n    (rebnconv4d): REBNCONV(\n      (conv_s1): Conv2d(64, 32, kernel_size=(3, 3), stride=(1, 1), padding=(1, 1))\n      (bn_s1): BatchNorm2d(32, eps=1e-05, momentum=0.1, affine=True, track_running_stats=True)\n      (relu_s1): ReLU(inplace=True)\n    )\n    (rebnconv3d): REBNCONV(\n      (conv_s1): Conv2d(64, 32, kernel_size=(3, 3), stride=(1, 1), padding=(1, 1))\n      (bn_s1): BatchNorm2d(32, eps=1e-05, momentum=0.1, affine=True, track_running_stats=True)\n      (relu_s1): ReLU(inplace=True)\n    )\n    (rebnconv2d): REBNCONV(\n      (conv_s1): Conv2d(64, 32, kernel_size=(3, 3), stride=(1, 1), padding=(1, 1))\n      (bn_s1): BatchNorm2d(32, eps=1e-05, momentum=0.1, affine=True, track_running_stats=True)\n      (relu_s1): ReLU(inplace=True)\n    )\n    (rebnconv1d): REBNCONV(\n      (conv_s1): Conv2d(64, 64, kernel_size=(3, 3), stride=(1, 1), padding=(1, 1))\n      (bn_s1): BatchNorm2d(64, eps=1e-05, momentum=0.1, affine=True, track_running_stats=True)\n      (relu_s1): ReLU(inplace=True)\n    )\n  )\n  (stage1d): RSU7(\n    (rebnconvin): REBNCONV(\n      (conv_s1): Conv2d(128, 64, kernel_size=(3, 3), stride=(1, 1), padding=(1, 1))\n      (bn_s1): BatchNorm2d(64, eps=1e-05, momentum=0.1, affine=True, track_running_stats=True)\n      (relu_s1): ReLU(inplace=True)\n    )\n    (rebnconv1): REBNCONV(\n      (conv_s1): Conv2d(64, 16, kernel_size=(3, 3), stride=(1, 1), padding=(1, 1))\n      (bn_s1): BatchNorm2d(16, eps=1e-05, momentum=0.1, affine=True, track_running_stats=True)\n      (relu_s1): ReLU(inplace=True)\n    )\n    (pool1): MaxPool2d(kernel_size=2, stride=2, padding=0, dilation=1, ceil_mode=True)\n    (rebnconv2): REBNCONV(\n      (conv_s1): Conv2d(16, 16, kernel_size=(3, 3), stride=(1, 1), padding=(1, 1))\n      (bn_s1): BatchNorm2d(16, eps=1e-05, momentum=0.1, affine=True, track_running_stats=True)\n      (relu_s1): ReLU(inplace=True)\n    )\n    (pool2): MaxPool2d(kernel_size=2, stride=2, padding=0, dilation=1, ceil_mode=True)\n    (rebnconv3): REBNCONV(\n      (conv_s1): Conv2d(16, 16, kernel_size=(3, 3), stride=(1, 1), padding=(1, 1))\n      (bn_s1): BatchNorm2d(16, eps=1e-05, momentum=0.1, affine=True, track_running_stats=True)\n      (relu_s1): ReLU(inplace=True)\n    )\n    (pool3): MaxPool2d(kernel_size=2, stride=2, padding=0, dilation=1, ceil_mode=True)\n    (rebnconv4): REBNCONV(\n      (conv_s1): Conv2d(16, 16, kernel_size=(3, 3), stride=(1, 1), padding=(1, 1))\n      (bn_s1): BatchNorm2d(16, eps=1e-05, momentum=0.1, affine=True, track_running_stats=True)\n      (relu_s1): ReLU(inplace=True)\n    )\n    (pool4): MaxPool2d(kernel_size=2, stride=2, padding=0, dilation=1, ceil_mode=True)\n    (rebnconv5): REBNCONV(\n      (conv_s1): Conv2d(16, 16, kernel_size=(3, 3), stride=(1, 1), padding=(1, 1))\n      (bn_s1): BatchNorm2d(16, eps=1e-05, momentum=0.1, affine=True, track_running_stats=True)\n      (relu_s1): ReLU(inplace=True)\n    )\n    (pool5): MaxPool2d(kernel_size=2, stride=2, padding=0, dilation=1, ceil_mode=True)\n    (rebnconv6): REBNCONV(\n      (conv_s1): Conv2d(16, 16, kernel_size=(3, 3), stride=(1, 1), padding=(1, 1))\n      (bn_s1): BatchNorm2d(16, eps=1e-05, momentum=0.1, affine=True, track_running_stats=True)\n      (relu_s1): ReLU(inplace=True)\n    )\n    (rebnconv7): REBNCONV(\n      (conv_s1): Conv2d(16, 16, kernel_size=(3, 3), stride=(1, 1), padding=(2, 2), dilation=(2, 2))\n      (bn_s1): BatchNorm2d(16, eps=1e-05, momentum=0.1, affine=True, track_running_stats=True)\n      (relu_s1): ReLU(inplace=True)\n    )\n    (rebnconv6d): REBNCONV(\n      (conv_s1): Conv2d(32, 16, kernel_size=(3, 3), stride=(1, 1), padding=(1, 1))\n      (bn_s1): BatchNorm2d(16, eps=1e-05, momentum=0.1, affine=True, track_running_stats=True)\n      (relu_s1): ReLU(inplace=True)\n    )\n    (rebnconv5d): REBNCONV(\n      (conv_s1): Conv2d(32, 16, kernel_size=(3, 3), stride=(1, 1), padding=(1, 1))\n      (bn_s1): BatchNorm2d(16, eps=1e-05, momentum=0.1, affine=True, track_running_stats=True)\n      (relu_s1): ReLU(inplace=True)\n    )\n    (rebnconv4d): REBNCONV(\n      (conv_s1): Conv2d(32, 16, kernel_size=(3, 3), stride=(1, 1), padding=(1, 1))\n      (bn_s1): BatchNorm2d(16, eps=1e-05, momentum=0.1, affine=True, track_running_stats=True)\n      (relu_s1): ReLU(inplace=True)\n    )\n    (rebnconv3d): REBNCONV(\n      (conv_s1): Conv2d(32, 16, kernel_size=(3, 3), stride=(1, 1), padding=(1, 1))\n      (bn_s1): BatchNorm2d(16, eps=1e-05, momentum=0.1, affine=True, track_running_stats=True)\n      (relu_s1): ReLU(inplace=True)\n    )\n    (rebnconv2d): REBNCONV(\n      (conv_s1): Conv2d(32, 16, kernel_size=(3, 3), stride=(1, 1), padding=(1, 1))\n      (bn_s1): BatchNorm2d(16, eps=1e-05, momentum=0.1, affine=True, track_running_stats=True)\n      (relu_s1): ReLU(inplace=True)\n    )\n    (rebnconv1d): REBNCONV(\n      (conv_s1): Conv2d(32, 64, kernel_size=(3, 3), stride=(1, 1), padding=(1, 1))\n      (bn_s1): BatchNorm2d(64, eps=1e-05, momentum=0.1, affine=True, track_running_stats=True)\n      (relu_s1): ReLU(inplace=True)\n    )\n  )\n  (side1): Conv2d(64, 1, kernel_size=(3, 3), stride=(1, 1), padding=(1, 1))\n  (side2): Conv2d(64, 1, kernel_size=(3, 3), stride=(1, 1), padding=(1, 1))\n  (side3): Conv2d(128, 1, kernel_size=(3, 3), stride=(1, 1), padding=(1, 1))\n  (side4): Conv2d(256, 1, kernel_size=(3, 3), stride=(1, 1), padding=(1, 1))\n  (side5): Conv2d(512, 1, kernel_size=(3, 3), stride=(1, 1), padding=(1, 1))\n  (side6): Conv2d(512, 1, kernel_size=(3, 3), stride=(1, 1), padding=(1, 1))\n)"
      ],
      "locked": true
    },
    {
      "id": 9,
      "type": "BRIA_RMBG_ModelLoader_Zho",
      "pos": [
        600,
        810
      ],
      "size": [
        210,
        30
      ],
      "flags": {
        "collapsed": false
      },
      "order": 9,
      "mode": 0,
      "outputs": [
        {
          "name": "rmbgmodel",
…
